…
ion performed on each input tensor. def forward(self, x): x = self.pool(F.relu(self.conv1(x))) x = self.pool(F.relu(self.conv2(x))) x = torch.flatten(x, 1) # flatten all dimensions except batch x = F.relu(self.fc1(x)) x = F.relu(self.fc2(x)) x = self.fc3(x) return x We can use the following code to print out the summary of the model:\nfrom torchsummary import summary summary(Net(), (3,64,64),device=\u0026#39;cpu\u0026#39;) ---------------------------------------------------------------- Layer (type) Output Shape Param # ================================================================ Conv2d-1 [-1, 6, 60, 60] 456 MaxPool2d-2 [-1, 6, 30, 30] 0 Conv2d-3 [-1, 16, 26, 26] 2,416 MaxPool2d-4 [-1, 16, 13, 13] 0 Linear-5 [-1, 120] 324,600 Linear-6 [-1, 84] 10,164 Linear-7 [-1, 10] 850 ================================================================ Total params: 338,486 Trainable params: 338,486 Non-trainable params: 0 ---------------------------------------------------------------- Input size (MB): 0.05 Forward/backward pass size (MB): 0.31 Params size (MB): 1.29 Estimated Total Size (MB): 1.65 ---------------------------------------------------------------- Inspecting CPU/GP
…
.Linear(num_ftrs,len(classes)) vgg11_bn.classifier[6].requires_grad = True vgg11_bn.train() Quick inspection of the model # Again we can use the summary function to see the architecture of the model.\nThe vgg16 model has in total 128,812,810 parameters, and estimated total size of 506.64 Mb, both of which are much larger than the model we trained in case study 1.\nsummary(vgg11_bn, (3,64,64),device=\u0026#39;cpu\u0026#39;) ---------------------------------------------------------------- Layer (type) Output Shape Param # ================================================================ Conv2d-1 [-1, 64, 64, 64] 1,792 BatchNorm2d-2 [-1, 64, 64, 64] 128 ReLU-3 [-1, 64, 64, 64] 0 MaxPool2d-4 [-1, 64, 32, 32] 0 Conv2d-5 [-1, 128, 32, 32] 73,856 BatchNorm2d-6 [-1, 128, 32, 32] 256 ReLU-7 [-1, 128, 32, 32] 0 MaxPool2d-8 [-1, 128, 16, 16] 0 Conv2d-9 [-1, 256, 16, 16] 295,168 BatchNorm2d-10 [-1, 256, 16, 16] 512 ReLU-11 [-1, 256, 16, 16] 0 Conv2d-12 [-1, 256, 16, 16] 590,080 BatchNorm2d-13 [-1, 256, 16, 16] 512 ReLU-14 [-1, 256, 16, 16] 0 MaxPool2d-15 [-1, 256, 8, 8] 0 Conv2d-16 [-1, 512, 8, 8] 1,180,160 BatchNorm2d-17 [-1, 512, 8, 8] 1,024 ReLU-18 [-1, 512, 8, 8] 0 Conv2d-19 [-1, 512, 8, 8] 2,359,808 BatchNorm2d-20 [-1, 512, 8, 8] 1,024 ReLU-21 [-1, 512, 8, 8] 0 MaxPool2d-22 [-1, 512, 4, 4] 0 Conv2d-23 [-1, 512, 4, 4] 2,359,808 BatchNorm2d-24 [-1, 512, 4, 4] 1,024 ReLU-25 [-1, 512, 4, 4] 0 Conv2d-26 [-1, 512, 4, 4] 2,359,808 BatchNorm2d-27 [-1, 512, 4, 4] 1,024 ReLU-28 [-1, 512, 4, 4] 0 MaxPool2d-29 [-1, 512, 2, 2] 0 AdaptiveAvgPool2d-30 [-1, 512, 7, 7] 0 Linear-31 [-1, 4096] 102,764,544 ReLU-32 [-1, 4096] 0 Dropout-33 [-1, 4096] 0 Linear-34 [-1, 4096] 16,781,312 ReLU-35 [-1, 4096] 0 Dropout-36 [-1, 4096] 0 Linear-37 [-1, 10] 40,970 ================================================================ Total params: 128,812,810 Trainable params: 40,970 Non-trainable params: 128,771,840 ---------------------------------------------------------------- Input size (MB): 0.05 Forward/backward pass size (MB): 15.21 Params size (MB): 491.38 Estimated Total Size (MB): 506.64 ----------------------------------------------------------------
…
